ANN_using_Pytorch/diabetes.pt (torch, 5471 bytes, 6 tensors)

weight f4 [20, 8]
0	0x3ef71d94	0.48264754
1	0xbef159ff	-0.47138974
2	0x3e286151	0.16443373
3	0x3dfa9cd7	0.12236946
4	0xbe8fe4f1	-0.28104356
5	0x3e8a60e3	0.27027044
6	0x3f476f43	0.77904147
7	0xbe03e5da	-0.1288065
8	0xbd7cea21	-0.06174672
9	0x3e820c7b	0.25400147
10	0xbe9400a2	-0.28906733
11	0xbe87623d	-0.26442137
12	0x3e78f6a7	0.2431284
13	0xbe5b22d7	-0.21400009
14	0x3dbedbae	0.09319244
15	0xb9c2f8ac	-0.00037187838
16	0xbe7351f2	-0.23761728
17	0xbd3f2cba	-0.046673514
18	0x3ce6f3b2	0.028192375
19	0xbeec0072	-0.4609409
20	0x3d8e3d2b	0.069452606
21	0xbe1847b1	-0.14871098
22	0x3f0f5e01	0.56002814
23	0xbe8d6631	-0.27617028
24	0xbf1708fe	-0.58998096
25	0xbd364acc	-0.044504926
26	0x3e8bbf4b	0.27294382
27	0x3da31887	0.079636626
28	0x3ceb185d	0.02869814
29	0x3e75a46e	0.23988506
30	0xbfa2e933	-1.2727417
31	0xbeeb36ab	-0.45940146
32	0x3e8741a3	0.26417264
33	0xbdd7d1ec	-0.10538086
34	0xbdf94984	-0.12172225
35	0xbdfccb96	-0.123435184
36	0xbe3c5bcc	-0.18394393
37	0xbc7c1100	-0.0153849125
38	0xbe434158	-0.19067895
39	0x3dd22924	0.10261753
40	0x3e6df9f6	0.23239884
41	0x3def7fde	0.116943106
42	0xbe07f12e	-0.13275596
43	0x3e0d97a3	0.13827376
44	0x3e2f2537	0.1710404
45	0xbea4a36a	-0.32155925
46	0x3fcb614b	1.5889066
47	0xbce3a378	-0.027787909
48	0xbfa1ed71	-1.2650586
49	0xbeb508d1	-0.3535829
50	0xbe6fe9a2	-0.23428968
51	0xbcc6effd	-0.024284357
52	0x3deb0c82	0.11476995
53	0x3e66be9f	0.22533654
54	0xc00fc891	-2.2466166
55	0x3f155f70	0.5834875
56	0xbdc214be	-0.094766125
57	0x3eab3284	0.33436978
58	0xbe321b48	-0.1739322
59	0x3e88364b	0.26603922
60	0x3e5f95e6	0.21834525
61	0xbdb7ca73	-0.08974161
62	0xbe36a33f	-0.17835711
63	0x3e50fe72	0.20409563
64	0x3e4bd9a5	0.19907244
65	0xbd1bf6c6	-0.03807714
66	0xbed3b7a3	-0.4135104
67	0x3d555cea	0.052090563
68	0x3d363238	0.044481486
69	0xbe301a85	-0.17197616
70	0xbf9f7d5b	-1.246013
71	0x3f36794b	0.7127883
72	0xbe196b10	-0.14982247
73	0x3e7827b1	0.24233891
74	0x3ccd47e9	0.025058703
75	0xbed8b7bb	-0.42327675
76	0x3c8d2ab8	0.017232284
77	0xbe7be0c2	-0.24597457
78	0xbf93a704	-1.1535344
79	0x3e5d534e	0.2161381
80	0x3e0aeb4c	0.13566321
81	0xbedb50fd	-0.42835227
82	0x3eb4b43e	0.35293764
83	0xbcbff4b3	-0.023432111
84	0x3de8947d	0.11356447
85	0x3e16f1b3	0.14740638
86	0x40055a3c	2.0836325
87	0xbf3d6cc7	-0.73994106
88	0x3e57fe0a	0.21093002
89	0x3e609f5b	0.2193579
90	0xbed9f7b5	-0.42571798
91	0xbe8e88e7	-0.27838823
92	0xbe35f08c	-0.17767543
93	0x3e4e44d1	0.20143439
94	0xbf08984d	-0.5335739
95	0xbe4459da	-0.191749
96	0xbece64eb	-0.4031137
97	0x3d15ddea	0.036588587
98	0xbdc45ef0	-0.095884204
99	0xbdec67b2	-0.11543216
100	0x3ec023f6	0.37527436
101	0xbe427025	-0.18988092
102	0x3e0e13e1	0.1387477
103	0xbe662b3f	-0.22477435
104	0xbda2d41d	-0.07950614
105	0xbe51ea81	-0.20499612
106	0x3e9423c3	0.28933534
107	0x3eaecbf2	0.34139973
108	0xbde6e228	-0.11273605
109	0xbe3936e0	-0.1808734
110	0xbfabe2cb	-1.3428587
111	0x3e24883a	0.16067591
112	0xbf42c506	-0.76081884
113	0xbe0cee28	-0.13762724
114	0x3d36d616	0.044637762
115	0x3eb0a74e	0.34502643
116	0x3e8f91a8	0.28040814
117	0xbeaa2d45	-0.33237663
118	0x3f0209bd	0.5079611
119	0xbece7f43	-0.40331468
120	0xbe5ebcb9	-0.2175168
121	0x3e96192c	0.2931608
122	0x3d5445c0	0.05182433
123	0x3e7b25e3	0.24526171
124	0xbe5bdc13	-0.2147067
125	0x3d84a676	0.064770624
126	0x3f37166a	0.71518576
127	0x3ebf3595	0.37345567
128	0xbe442b2f	-0.19157098
129	0x3e800b30	0.25008535
130	0xba109e3b	-0.0005516742
131	0x39df5855	0.00042599687
132	0xbde97c0c	-0.11400613
133	0xbe3148f5	-0.17312987
134	0xbf72d0a1	-0.9484959
135	0x3e1e8b72	0.15482882
136	0x3dda1300	0.10648155
137	0xbe7c7c33	-0.24656753
138	0x3d04e350	0.032443345
139	0xbd39ee98	-0.045393556
140	0x3d9c8e98	0.07644385
141	0xbe0e184d	-0.13876458
142	0x3e607ef6	0.21923432
143	0xbe98cc45	-0.29843345
144	0xbf2621ca	-0.6489531
145	0xbe2f4448	-0.17115891
146	0x3e0306cf	0.12795566
147	0xbea40f8c	-0.3204311
148	0xbe6d6d0d	-0.23186131
149	0x3f249a6c	0.6429813
150	0x3f33f147	0.70290035
151	0xbe31d594	-0.1736663
152	0x3f127a72	0.57218087
153	0xbe52962c	-0.20565099
154	0x3e53f641	0.20699407
155	0xbe5aed04	-0.21379477
156	0x3de5ffe5	0.11230449
157	0x3d3daef9	0.046309445
158	0xbe5794ea	-0.210529
159	0xbdac0901	-0.08400155

bias f4 [20]
0	0xbea66d2d	-0.3250517
1	0xbf51ce6e	-0.8195561
2	0xbe9d70af	-0.30750033
3	0x3fe3d7c7	1.7800225
4	0x3da48330	0.080328345
5	0xc00ef6ed	-2.2338212
6	0xbf0f2274	-0.55911946
7	0x3f8227b9	1.0168372
8	0x3f5e19e3	0.8675825
9	0x4013835e	2.304893
10	0x3eaecb3a	0.34139425
11	0xbdcdc504	-0.100473434
12	0xbfc7ddab	-1.5614523
13	0x3ff216b2	1.8913176
14	0x3f35fb48	0.7108655
15	0xbfa01a82	-1.250809
16	0x3f8f3ab6	1.1189792
17	0xbd622218	-0.055208296
18	0x3fb01a05	1.375794
19	0xbcfee9af	-0.031117288

weight f4 [20, 20]
0	0xbeb20b0f	-0.34774062
1	0x3c143f8d	0.009048355
2	0x3ddf11c4	0.108920604
3	0x3e8f9358	0.28042102
4	0xbe385560	-0.18001318
5	0x3b3f9139	0.0029230847
6	0xbf29324b	-0.66092366
7	0x3dd3e153	0.103457116
8	0xbdf19944	-0.11796811
9	0x3e36b67f	0.17843054
10	0x3fe0e4b9	1.7569801
11	0x3d6d50f8	0.057938546
12	0xbc5d4d58	-0.01350721
13	0x3e9db5bd	0.30802718
14	0x3de4dd67	0.11175042
15	0xbe3ce2b6	-0.18445858
16	0x3e378eee	0.17925617
17	0xbdf49e1a	-0.11944218
18	0x3bb8083a	0.005616215
19	0x3e66f7a1	0.225554
20	0xbe8928ae	-0.2678885
21	0xbd587640	-0.052847147
22	0x3d58b46c	0.05290644
23	0x3e36c3a0	0.17848063
24	0x3dc2afe8	0.09506208
25	0x3e08644a	0.13319507
26	0x3ee1a195	0.4406859
27	0x3cf747ea	0.030185658
28	0xbea1a38f	-0.31570098
29	0x3d831e68	0.06402284
30	0xbec6326c	-0.38710344
31	0x3e5070c3	0.20355515
32	0x3db6095e	0.088885054
33	0x3cc2d5c4	0.023783572
34	0xbe62c554	-0.22145587
35	0xbdb32e8d	-0.08749113
36	0x3c615b67	0.013754702
37	0xbe1fa764	-0.15591198
38	0x3e7f4e82	0.24932292
39	0xbd8a62c0	-0.06757116
40	0x3c37ea71	0.011225329
41	0x3d6fd7d8	0.058555454
42	0xbd3a9133	-0.04554863
43	0x3cfc885d	0.030826742
44	0x3e502710	0.20327401
45	0x3b1a1c8a	0.0023515546
46	0x3dcc6a82	0.09981252
47	0xbe86efd3	-0.26354846
48	0xbdd866a4	-0.10566452
49	0xbe1e2e44	-0.15447336
50	0x3e0d4005	0.13793953
51	0x3e42d235	0.190255
52	0xbd841b7c	-0.06450555
53	0x3cfab977	0.030606015
54	0x3db067de	0.08613561
55	0xbe1341e6	-0.14380607
56	0x3bd55223	0.0065100356
57	0x3e250fb2	0.16119269
58	0xbe58f301	-0.21186449
59	0xbe591f1a	-0.2120327
60	0xbea755d2	-0.32682663
61	0x3d0b0054	0.03393586
62	0x3d05b167	0.032639887
63	0xbe220f67	-0.15826188
64	0x3e11fcd2	0.142566
65	0xbe879925	-0.26484028
66	0xbde275cb	-0.110576235
67	0xbe2e58cb	-0.1702606
68	0x3d8bb719	0.068220325
69	0xbeaed3ca	-0.34145957
70	0x3e410fa1	0.18853618
71	0xbea421b3	-0.3205696
72	0xbd3c002b	-0.045898598
73	0xbe1de4f9	-0.15419377
74	0xbdb05dcd	-0.08611641
75	0x3dca64b2	0.09882487
76	0xbc93a448	-0.018022671
77	0x3d42e350	0.047580063
78	0x3d88c7ad	0.0667871
79	0x3d762237	0.060091224
80	0x3f49fae8	0.7889848
81	0xbd5734f2	-0.052540727
82	0xbe268943	-0.16263299
83	0xbfe899a6	-1.817189
84	0xbe3b0820	-0.18264818
85	0xbe5c8bf3	-0.21537761
86	0x3eb7917f	0.35853192
87	0xbc409b68	-0.011755802
88	0xbf5b6b91	-0.8571101
89	0x3e4b4767	0.19851457
90	0xbfa4d2e8	-1.2876863
91	0x3d1ec560	0.03876245
92	0xbe91a4ea	-0.28446132
93	0x3f2346ef	0.6378011
94	0x3e0d43b1	0.13795353
95	0xbe4fe674	-0.20302755
96	0x3d9c9829	0.0764621
97	0xbc39f330	-0.011349484
98	0x3d5dde01	0.054166798
99	0x3d1a600c	0.037689254
100	0x3dc085a5	0.09400491
101	0x3bb89870	0.0056334063
102	0xbdcf8ca4	-0.10134247
103	0xbe94d8c5	-0.29071632
104	0xbbbde0c0	-0.0057946146
105	0x3e34b674	0.17647725
106	0x3f0d641f	0.552309
107	0x3e4a4d5f	0.19756077
108	0x3d80bf60	0.06286502
109	0x3aeb9eb6	0.0017976377
110	0xbf981411	-1.1881124
111	0x3c7abd8f	0.015303983
112	0xbe0a02dc	-0.13477653
113	0xbe2247b9	-0.15847673
114	0xbdf25a41	-0.11833621
115	0x3df996ed	0.1218699
116	0x3d82dcb6	0.063897535
117	0xbe267a85	-0.16257675
118	0xbe22616e	-0.15857479
119	0xbc52d4b0	-0.012868091
120	0xbdef59ed	-0.11687074
121	0x3c293745	0.010328119
122	0x3d7c496e	0.061593466
123	0xbc3977a2	-0.011320027
124	0x3dd8a5b4	0.1057848
125	0xbddea48e	-0.1087123
126	0xbf418297	-0.7558989
127	0x3e3b739a	0.18305817
128	0x3d856417	0.06513231
129	0xbd501034	-0.050796703
130	0x3fd57dd2	1.6679022
131	0xbd6691d3	-0.056291413
132	0xbdef006b	-0.116700016
133	0x3c5f1e89	0.01361812
134	0x3bcb67ff	0.0062074657
135	0xbe30f946	-0.1728259
136	0x3e066474	0.13124257
137	0x3e1edece	0.1551468
138	0x3ebdd9dd	0.3708028
139	0x3e2faee0	0.17156553
140	0x3df1f858	0.11814946
141	0x3d40249f	0.046909925
142	0xbdb86252	-0.09003128
143	0x3e36fbf4	0.1786955
144	0xbdfbf5be	-0.12302731
145	0xbe5a533f	-0.21320818
146	0xbe2c5394	-0.16828758
147	0xbe8e9a90	-0.27852297
148	0x3de50b9f	0.11183857
149	0xbcc952ba	-0.02457558
150	0xbdcee432	-0.101021186
151	0xbd8dbcfa	-0.0692081
152	0xbe789fba	-0.24279681
153	0xbe6ecd3e	-0.23320481
154	0xbe8913ba	-0.26772863
155	0x3e1ae84b	0.15127675
156	0xbe211e49	-0.15734209
157	0xbdd323d0	-0.10309565
158	0xbdebf78d	-0.11521826
159	0x3e0d100e	0.13775656
160	0x3b712c41	0.003680006
161	0xbe63979b	-0.22225802
162	0xbc23728b	-0.00997604
163	0xbd83329d	-0.06406138
164	0xbe3c0628	-0.18361723
165	0x3ddcbc08	0.107780516
166	0xbe051cd6	-0.12999281
167	0xbe591218	-0.21198308
168	0x3d8de21d	0.06927893
169	0xbc998550	-0.018740326
170	0xbd1bdf1a	-0.038054563
171	0xbea1547a	-0.31509763
172	0xbd664b1f	-0.056223985
173	0xbd2d740c	-0.042347
174	0x3d38c84b	0.04511289
175	0x3dd3f955	0.10350291
176	0xbe213b18	-0.15745199
177	0xbd521cb4	-0.051296905
178	0xbd8f21e0	-0.06988883
179	0xbe4ba808	-0.19888318
180	0xbddb8c8b	-0.10720166
181	0xbc8a0e00	-0.016852379
182	0xbdd1162f	-0.10209309
183	0xbc5d19da	-0.013494933
184	0xbe366c8f	-0.1781485
185	0xbd9b8288	-0.07593256
186	0xbde5e634	-0.112255484
187	0xbe86398b	-0.26215777
188	0x3df4653c	0.119333714
189	0xbd4fe9d4	-0.050760105
190	0x3e10882e	0.14114448
191	0x3de307a8	0.11085445
192	0x3d101008	0.03517154
193	0x3e12dff4	0.14343244
194	0xbe26c3b7	-0.16285597
195	0xbd7d6e96	-0.06187304
196	0xbe701235	-0.23444445
197	0x3e4aeb46	0.19816312
198	0xbd46d43f	-0.048542257
199	0xbe5af6da	-0.21383229
200	0xbe8699aa	-0.2628911
201	0xbdba0299	-0.09082527
202	0xbe035b5b	-0.12827818
203	0xbe87d529	-0.26529816
204	0xbe319198	-0.17340696
205	0xbdeb1259	-0.11478109
206	0xbe441013	-0.19146757
207	0xbe3db5bc	-0.18526357
208	0xbd2dbe84	-0.042418018
209	0x3de881a9	0.11352856
210	0x3d926480	0.07148075
211	0xbdbde5cf	-0.09272348
212	0x3c17fa90	0.009276047
213	0x3de59891	0.1121074
214	0x3e588634	0.21144944
215	0xbd09e054	-0.0336612
216	0xbd9f73de	-0.07785772
217	0xbe44ecbd	-0.19230933
218	0x3e5245c9	0.20534433
219	0x3d5bfaf4	0.053706124
220	0xbd859934	-0.06523362
221	0x3d67bc0d	0.056575824
222	0x3e266e54	0.16253024
223	0x3cf7f915	0.030270139
224	0x3e341724	0.17586952
225	0x3d72cafd	0.059275616
226	0xbeb78b77	-0.3584859
227	0x3e3a1d30	0.18175197
228	0x3d96c0c4	0.07360986
229	0x3de8efc7	0.11373859
230	0x3f963bfa	1.1737053
231	0xbb7f3d42	-0.0038946425
232	0x3de941ea	0.11389525
233	0x3c5d3b02	0.013502838
234	0x3d7bc55c	0.061467513
235	0xbe4c37cd	-0.19943161
236	0x3d0c9d56	0.034329735
237	0xbe22f314	-0.1591304
238	0xbf2a7897	-0.66590255
239	0xbe3adc4f	-0.18248104
240	0x3d6a3003	0.057174694
241	0xbcf11f85	-0.029433975
242	0xbc1d7b5f	-0.0096119335
243	0xbe905acd	-0.28194275
244	0xbe3027ea	-0.17202726
245	0x3dc71952	0.09721626
246	0x3f1abb6e	0.60442245
247	0x3e2f8956	0.17142233
248	0xbdcda34e	-0.100409135
249	0xbd51b030	-0.051193416
250	0xbf901f3c	-1.1259532
251	0x3d486b97	0.04893073
252	0x3e0cf13c	0.13763899
253	0xbdb4e0a5	-0.0883191
254	0x3d49ae54	0.049238518
255	0x3e1230e9	0.1427647

bias f4 [20]
0	0x3f84c0bd	1.0371319
1	0xbf2ce9df	-0.6754436
2	0xbdb119b2	-0.08647479
3	0xbe315e60	-0.17321157
4	0xbe855dab	-0.26048025
5	0xbf5de281	-0.8667374
6	0x3f91ef53	1.1401161
7	0xbe5c371f	-0.21505402
8	0xbd9ac483	-0.07557013
9	0xbe26eb17	-0.16300617
10	0xbd486327	-0.048922684
11	0x3f8d6e2f	1.104925
12	0xbf77cf67	-0.96800846
13	0xbe306a9f	-0.17228173
14	0xbef931ce	-0.4867081
15	0xbf98bfaf	-1.1933497
16	0xbfc4f1fa	-1.5386345
17	0xbe12f902	-0.14352801
18	0x3e129e31	0.14318158
19	0x3fb0c105	1.3808905

weight f4 [2, 20]
0	0x3df8fd79	0.12157721
1	0x3dc7df19	0.097593494
2	0xbe143d6c	-0.14476556
3	0x3e1788d9	0.14798297
4	0xbf55476d	-0.8331211
5	0xbbf4229f	-0.007450416
6	0xbc9cf647	-0.019160403
7	0x3df2b5d7	0.118510894
8	0x3e8909e2	0.26765352
9	0xbdd0a08f	-0.10186874
10	0x3cc99124	0.024605341
11	0x3d7f2530	0.062291324
12	0xbe81d792	-0.2535978
13	0x3c959085	0.018257389
14	0xbcb952f8	-0.02262257
15	0xbca554f1	-0.020182105
16	0xbd8f6b5d	-0.070029
17	0xbd7f9964	-0.062402144
18	0x3d5ac9c1	0.053415064
19	0x3ed3e547	0.41385862
20	0xbde6b4f0	-0.1126498
21	0x3e8c5358	0.27407336
22	0xbdc59bbd	-0.09648845
23	0x3d5b79ba	0.053582884
24	0x3f04db20	0.5189686
25	0x3e67f1e6	0.2265087
26	0xbe169787	-0.1470624
27	0x3da8926d	0.082310535
28	0x3e1a151e	0.15047118
29	0xbe259181	-0.16168787
30	0xbd9ce96e	-0.07661711
31	0xbded2a7b	-0.11580368
32	0x3de1c6c2	0.11024238
33	0x3d0bf724	0.03417124
34	0x3df05eae	0.11736809
35	0x3e28adeb	0.16472594
36	0x3e4ed4f7	0.20198427
37	0x3dc0d60e	0.09415828
38	0x3d706486	0.058689617
39	0xbeaaa161	-0.33326247

bias f4 [2]
0	0x3f755118	0.95826864
1	0xbfa6d4c4	-1.3033681
